summary_model.pt (torch, 3520 bytes, 3 tensors)

layer.0.weight f4 [64, 3]
000000 91 66 8f be 30 85 d0 bd 61 92 b4 be 78 58 e9 3e
       -0.2800794 -0.101816535 -0.35267928 0.4557531
000010 90 c2 a1 bd b0 a3 64 3d 68 c5 eb 3e bc d8 f5 3e
       -0.07898438 0.055820167 0.46049047 0.48016918
000020 80 99 da bc c0 9e 22 bc 0c a4 a0 be 33 9f d0 be
       -0.026684523 -0.009925544 -0.31375158 -0.4074646
000030 c0 21 63 bc c4 91 aa bd 56 a0 9a 3e 98 96 5f 3e
       -0.013863027 -0.08328584 0.30200452 0.2183479
000040 6c 40 6c 3e 02 c7 8f 3e 2c 02 30 bf 71 b5 8b be
       0.2307145 0.28081518 -0.68753314 -0.27286866
000050 7b ab 8d 3c 7f 53 13 bf fe d9 bd 3e 75 b9 10 3f
       0.017293682 -0.5754928 0.37080377 0.56532985
000060 60 65 0b 3f 2f 7a 0e bf 01 d0 d6 3e b2 fd 25 be
       0.5445156 -0.5565519 0.4195557 -0.16210058
000070 c8 47 89 be fb 43 0f 3f 20 3f 10 3e 68 e2 28 3e
       -0.26812577 0.55963105 0.1408658 0.16492617
000080 a0 5b af be a4 82 b0 bd 7a 84 0e be b8 72 05 3f
       -0.34249592 -0.08618668 -0.13917723 0.5212817
000090 c1 55 20 be a1 e0 e9 be 72 25 c7 be 67 08 1b bd
       -0.15657713 -0.4567919 -0.38895756 -0.03784981
0000a0 d8 bb 0f 3e b0 69 e1 bc 82 cb 36 bf 90 9a f3 bd
       0.140365 -0.027516216 -0.7140428 -0.11894715
0000b0 89 7d ea bd 87 f3 f8 be f0 0c 1f 3e 6a 2f c2 3e
       -0.11449725 -0.48623297 0.15532279 0.379268
0000c0 3d 85 f9 be 78 af f3 3e 59 bf 1c 3f 76 a5 ad be
       -0.48734465 0.4759481 0.61229473 -0.339153
0000d0 6f dd 8d be 12 fb cb 3e 44 59 b5 be 8c 43 26 3e
       -0.27708003 0.3983999 -0.35419667 0.16236705
0000e0 92 e8 29 bd 53 8f 21 be 21 6b ce be e8 af 0c bd
       -0.041481562 -0.1577733 -0.40316108 -0.034347445
0000f0 a0 f9 67 bd 42 70 ef be f7 0a e0 bd 7a 04 7f be
       -0.056634545 -0.46765333 -0.109395914 -0.24904051
000100 a1 34 10 bf df 18 8a be 0a bd 3d bf d4 65 ad be
       -0.56330305 -0.269721 -0.74116576 -0.3386675
000110 da f7 d7 bd 40 ec d9 be 54 2d b5 3e 73 8e 13 3f
       -0.10545321 -0.42563057 0.35386145 0.57639235
000120 e4 b1 78 3e 1a 1e dd be 38 58 f7 3d 1b 92 23 bf
       0.2428661 -0.43187028 0.12077373 -0.63894814
000130 fe 82 bd be 4d a2 83 3d f8 71 0a bf da d4 74 be
       -0.37014002 0.06427441 -0.5408015 -0.23909321
000140 67 d0 0b 3e cd ff 00 bf bc 20 35 3e 22 8d b4 bd
       0.13653718 -0.5039032 0.17688268 -0.088159814
000150 32 77 97 be c7 62 0a bf 58 c1 c4 be 9b 33 33 bf
       -0.29583126 -0.5405697 -0.3842876 -0.7000062
000160 c0 a1 a6 3d 3a ec b9 3e 2b b6 3f 3d a0 a6 07 3d
       0.0813632 0.3631304 0.04680459 0.03311789
000170 c2 a5 49 be 2b 09 ce bb c8 f4 59 3e d7 1d 1c bf
       -0.19692138 -0.006287714 0.21284783 -0.6098303
000180 22 58 33 bf 5c 22 58 be 55 51 b1 be f7 ef 89 be
       -0.70056355 -0.21106857 -0.34632364 -0.2694089
000190 cc c7 4f 3e 4a 2f ff 3d c0 ca 89 3c 32 f5 30 be
       0.2029106 0.124601915 0.016820312 -0.17281035
0001a0 d6 c5 06 be a7 98 a4 3c b4 e2 0d 3f 9b 9d 7a 3e
       -0.13161406 0.020092322 0.55424047 0.24474184
0001b0 d4 11 66 3e 60 c0 dd 3e 58 27 5b be 8f 31 b9 be
       0.22467738 0.43310833 -0.21401727 -0.36170623
0001c0 64 28 42 be 32 f8 5d bd 40 4d 80 bc 7c c9 1b 3e
       -0.1896072 -0.054191776 -0.015661836 0.15213579
0001d0 78 6e 5c 3e c8 13 b3 3d ac 7c 0f 3f e7 4d eb be
       0.21526515 0.08744007 0.5604961 -0.45957872
0001e0 cb eb 7e be 7c 7b 01 bf 3b 19 88 be 1c d0 09 3f
       -0.24894635 -0.5057905 -0.2658175 0.53833175
0001f0 1c 39 dd 3e 7a 3c c9 3e 26 5c d8 be d8 69 20 be
       0.43207633 0.39303952 -0.42257804 -0.15665376
000200 eb e3 dd bd 70 d8 fb bd a8 cd ee 3d 6d 4b 2a 3d
       -0.108344875 -0.122971416 0.116603196 0.041575838
000210 44 e6 58 3e c0 d8 21 3d 5c f8 ee be e1 0b 62 3c
       0.2118159 0.03951335 -0.46673858 0.013796777
000220 37 e4 e2 be 93 dc 0d 3f 5b 12 36 bf b0 ff 7e 3d
       -0.4431474 0.55414695 -0.7112176 0.06225556
000230 c3 e2 1d 3f 9c a7 0c bf e0 a1 f6 3c 00 66 2d 3f
       0.61674136 -0.5494325 0.030106485 0.67733765
000240 52 de 0a 3f 80 a9 ac 3e 80 9a 9e be 48 f0 b6 be
       0.54245484 0.33723068 -0.3097725 -0.35730195
000250 d8 84 79 3e e4 45 5c be 20 e1 af 3c 80 e1 a9 3c
       0.24367082 -0.21511036 0.021469653 0.02073741
000260 d8 fb 96 3d 0c e7 2e 3e 0d 0b 8a be b0 22 62 bd
       0.07372254 0.17080325 -0.26961556 -0.05520886
000270 e0 73 cd be 20 72 9c 3c 31 10 0b 3f ef 35 cd be
       -0.40127468 0.019097388 0.5432158 -0.4008021
000280 9c 7b a6 be 2c b6 4e 3e ea bf ed bd e4 98 76 3e
       -0.3251618 0.2018668 -0.1160887 0.2408176
000290 46 7d f7 be f4 30 80 3e 34 46 df 3e 60 83 fb 3d
       -0.48337764 0.25037348 0.43608248 0.12280917
0002a0 0d ac cd be 74 f1 0c 3f c6 67 21 3e a9 6e 9a 3e
       -0.40170327 0.5505593 0.15762243 0.30162552
0002b0 6a 3f c1 be a8 c4 68 3e f2 e7 25 bf d9 12 0f bf
       -0.37743694 0.22731268 -0.64807045 -0.55888134
0002c0 35 a1 10 3f e3 97 74 be ab ac 12 bf 5e be f5 3e
       0.5649598 -0.23886065 -0.5729472 0.479968
0002d0 e8 bb a6 bd c0 39 54 3d 50 8b ce 3e df 45 2c bf
       -0.08141309 0.051812887 0.40340662 -0.67294115
0002e0 64 a0 e5 bd 87 2c 55 be a4 0c 4b 3e 40 17 10 3e
       -0.11212233 -0.20817767 0.19829041 0.14071369
0002f0 c0 ea bd 3c aa f4 03 bf f0 f2 04 3e 65 40 f8 3e
       0.023183227 -0.515452 0.12983298 0.4848663

layer.0.bias f4 [64]
000000 50 56 df 3e a0 da 6f be a1 4f 0f bf 80 74 a4 bb
       0.4362054 -0.23423243 -0.5598088 -0.0050187707
000010 71 c1 c1 be 0e 24 c6 be 97 31 37 3f 62 39 88 3d
       -0.37842897 -0.38699383 0.71560043 0.0665157
000020 71 20 e3 3e 15 8d 19 3f b8 2e 40 be 84 d0 c3 be
       0.44360688 0.599809 -0.18767822 -0.38245022
000030 36 aa 0b 3f 98 65 75 bd c5 1d 11 be db d2 bc 3e
       0.54556596 -0.05991134 -0.14171512 0.3687962
000040 09 d8 05 3f cf 07 24 3e 09 0e 0b 3f bd 87 07 3f
       0.5228277 0.16018604 0.5431829 0.52941495
000050 d6 a3 f7 3e 64 94 06 3f 95 79 a3 be 96 7d a0 3e
       0.48367184 0.52570176 -0.31928697 0.31345814
000060 74 20 b7 be 3b ea af 3c 2f 42 28 3e e9 a2 25 3e
       -0.35766947 0.021473994 0.16431497 0.16175427
000070 a2 cc db be 04 e1 cf 3e 27 ac 2b 3f 65 c2 31 3e
       -0.4292956 0.4060136 0.6705956 0.17359312
000080 ca 09 5d 3e 68 26 db be aa 6c bb be 85 04 90 bd
       0.21585765 -0.4280274 -0.36606342 -0.07032112
000090 a2 38 44 be 38 c7 8d 3e 28 1f a3 be 58 cb 9b bd
       -0.19162229 0.27691054 -0.31859708 -0.07607144
0000a0 46 19 dd 3e 58 ae 34 3e 15 06 3b 3f de 32 f8 3e
       0.43183345 0.17644632 0.73056155 0.4847631
0000b0 d7 4a fe be bd e2 35 3f 89 a7 32 3f 02 d1 58 be
       -0.49666473 0.710491 0.6978689 -0.2117348
0000c0 68 03 5b be e5 e2 95 3c 22 bc 6c be d8 64 58 be
       -0.21388018 0.018296668 -0.23118642 -0.21132219
0000d0 d8 4e 9a 3d 8c 35 76 3e d3 0f e7 bd 1f 8a 8c be
       0.075345695 0.24043864 -0.11282315 -0.27449128
0000e0 e0 8c 4a be 88 39 82 3e 1d 37 97 be 5b ca 40 3e
       -0.19780302 0.25434518 -0.29534236 0.18827192
0000f0 b0 1d f0 be d9 8c 43 3d 40 78 5d 3d 1e 44 53 be
       -0.4689765 0.047741745 0.054069757 -0.20631453

layer.3.weight f4 [1, 64]
000000 2e a8 16 be d0 06 fe bc cc c5 fa bd a0 41 fa 3c
       -0.14712593 -0.031009108 -0.12244758 0.03054887
000010 c0 ee 09 bb 8c ee a6 bd 4e d8 43 be e9 de 1c be
       -0.0021046847 -0.08150968 -0.19125482 -0.15319408
000020 7b 87 a4 3d 17 38 2a be a0 2b fe bc 50 52 33 3c
       0.08033653 -0.16622959 -0.031026661 0.010944918
000030 30 f7 5e be 85 c7 8e 3d 3a df 73 be 70 2d 29 be
       -0.21773982 0.06971649 -0.23815623 -0.1652124
000040 a8 96 19 be 9e d2 62 be 84 41 5a be d8 76 3a be
       -0.14998877 -0.22150657 -0.21314055 -0.18209398
000050 3c 1a b7 be 4e 5d 4a be 74 11 6e be f5 a6 50 be
       -0.35762203 -0.19762155 -0.23248845 -0.20376189
000060 82 f8 cc bd a7 0f 46 be 9d ee 28 be 48 85 ec bd
       -0.100083366 -0.19341908 -0.16497274 -0.11548859
000070 56 79 a9 3d 1b 52 72 be a0 07 db be 1a 40 a1 3c
       0.08275096 -0.23664133 -0.42779255 0.019683886
000080 b7 bd 43 be 37 dd cd 3b 70 ba c4 3d 2a 81 8a 3d
       -0.19115339 0.0062824744 0.09605873 0.06762917
000090 44 24 88 3d c6 9b 7c be 60 d9 8f 3b 1a 7b 8c 3d
       0.06647542 -0.24668798 0.004389927 0.06859417
0000a0 0c bf 23 bd 80 f8 57 3c 2e 78 36 be 3b c8 5f be
       -0.03997712 0.013181806 -0.17819282 -0.21853726
0000b0 66 f6 e7 3d ed 69 7d be 3b 3f 71 be 56 7e d2 be
       0.11326294 -0.24747439 -0.23559277 -0.41112012
0000c0 d0 51 2d 3c c3 2d 1d 3b e8 4c 4b bd 60 46 28 3c
       0.010578588 0.0023983575 -0.04963389 0.010270685
0000d0 31 8a 3f be e0 f4 2e be 83 fe 93 3d 0a 26 d0 3d
       -0.1870506 -0.170856 0.07226279 0.101635054
0000e0 5c 0a 0f bd f9 62 d1 3c 5a 28 64 be ab fb 62 be
       -0.03492199 0.02555989 -0.22281018 -0.22166316
0000f0 9a 25 d0 bd fe 60 29 be 04 88 54 3d 48 c5 58 bd
       -0.10163422 -0.16540906 0.051887527 -0.052922517
