summary_model.pt (torch, 4800 bytes, 3 tensors)

layer.0.weight f4 [128, 3]
000000 46 3e b1 be 7d 97 c5 be 45 57 7f be 66 b2 c9 3d
       -0.34617823 -0.3859214 -0.24935634 0.0984848
000010 64 09 68 3e 02 85 e9 3e 84 62 ea be 5a 7b 06 bf
       0.22659832 0.4560929 -0.45778286 -0.5253197
000020 07 c3 b9 be 1e 7c 03 3f 33 88 ed be a0 9f ec 3d
       -0.36281607 0.5136126 -0.46392974 0.115538836
000030 e0 a9 87 be 44 70 64 3e 37 7a 88 be e0 84 9d 3e
       -0.26496792 0.22308451 -0.26655743 0.30765438
000040 52 28 d0 be f0 40 e8 3e 83 df 1b bf 48 9d b7 3e
       -0.40655762 0.45362043 -0.60887927 0.35862184
000050 22 ed 8c bd a7 7b d1 be 60 ed de bc 9e 9d 58 3e
       -0.06881167 -0.40914652 -0.027212799 0.21153876
000060 e0 c0 d4 bd 70 5f ed 3e 38 76 75 3e 02 c0 b3 3e
       -0.103883505 0.46361876 0.23970878 0.35107428
000070 20 60 11 3e 2c 96 3b 3e a7 d4 96 be c8 a4 5d 3e
       0.14196825 0.18319005 -0.29459116 0.2164489
000080 76 46 43 3e 00 df 0a bd 24 01 b5 3e 64 78 cb bd
       0.19069847 -0.033904076 0.35352433 -0.09935072
000090 0c 6e 25 bf fc 01 fe be 5e 1c a1 3e 0b 31 10 3e
       -0.64621043 -0.4961089 0.31466955 0.14081208
0000a0 68 e8 84 be 9f bf fe bc 42 57 12 bf fc 5a cc 3e
       -0.25958562 -0.031097231 -0.57164395 0.39913166
0000b0 14 c8 06 3e af 2d a8 be 53 0b 82 be 29 9a 8a be
       0.13162261 -0.32847354 -0.25399265 -0.2707074
0000c0 20 2b cb 3e 00 bf b1 3e 0e 60 c9 be b2 67 21 be
       0.3968134 0.34716034 -0.39331096 -0.15762213
0000d0 2a a1 99 3e 6e 22 37 3f 34 27 b7 3e ac 80 64 3e
       0.3000577 0.7153691 0.35772097 0.2231471
0000e0 f8 49 da 3d 16 ff c8 be c0 ae 80 be 81 de 25 3e
       0.1065864 -0.39257115 -0.25133324 0.1619816
0000f0 88 e7 e7 3e 38 fd 70 3e 78 e9 4d be 90 b2 04 be
       0.45293832 0.23534095 -0.20108593 -0.12958741
000100 ee b5 d7 be af a1 e2 3e 18 d1 e6 3e c9 a5 93 be
       -0.4213099 0.4426398 0.450814 -0.28837422
000110 1e c5 09 be 8c 7f 05 3e 2c 57 f8 3e 14 32 db be
       -0.134541 0.13036937 0.48504007 -0.42811644
000120 f2 c4 eb bd 80 3d ea 3d b6 12 30 3e 8b a9 98 be
       -0.11512174 0.114375114 0.17194638 -0.2981685
000130 97 a7 84 be 90 f4 2f 3e 2a 0d be 3e d0 90 d9 3e
       -0.2590911 0.17183137 0.37119418 0.42493296
000140 42 3c 8c 3e a0 4b cb 3d ae a2 a5 be 78 f9 8b bd
       0.27389723 0.09926534 -0.32350677 -0.06834692
000150 0a 96 b2 3e 84 aa 5f 3e 3b 81 f5 be dc 85 d2 3e
       0.34880096 0.2184239 -0.47950158 0.41117752
000160 40 48 57 3d d4 f5 05 3e 6b 93 0e bf 70 f1 0a 3d
       0.052559137 0.13082057 -0.5569369 0.03392166
000170 54 56 03 3f 00 22 2e bb 80 21 80 3b e0 8c ca 3d
       0.513036 -0.0026570559 0.0039102435 0.09890151
000180 85 52 dd bd be fd bd be f8 80 bd 38 fa 51 b4 3e
       -0.10806755 -0.37107652 9.0362446e-05 0.35218793
000190 66 7d ed be 48 8c f2 3e fe 67 2f bf c0 c7 c9 3d
       -0.46384734 0.4737265 -0.68518054 0.098525524
0001a0 cd b9 e5 be c8 e6 ea 3e b0 9f 09 bf 70 57 95 bd
       -0.44868317 0.45879197 -0.5375929 -0.07292068
0001b0 63 5d eb be 60 e2 56 3d e4 9e 22 3e c0 10 97 bc
       -0.45969686 0.05246198 0.15880924 -0.018440604
0001c0 6e 14 09 be 4c af 05 bf f8 00 f0 3e e8 2c d9 3e
       -0.133867 -0.52220607 0.4687574 0.42417073
0001d0 b0 b6 d7 bd ae 14 0f bf 40 a3 ac 3d 62 10 94 be
       -0.10532892 -0.5589093 0.08429575 -0.2891875
0001e0 98 29 05 3f 7b eb 09 bf 2c 20 63 be 80 23 8c 3c
       0.5201659 -0.5387494 -0.22180241 0.017106771
0001f0 88 97 e1 3e f4 4d d7 be a1 17 d7 3d fa 23 a7 3e
       0.44060922 -0.4205166 0.10502554 0.32644635
000200 a4 2c bd be e1 2d 16 be ac 41 e5 3e 94 fa ae bd
       -0.3694812 -0.14665939 0.44776666 -0.08543888
000210 7a 1f 12 3f 34 22 6e 3e ea 93 82 3e 90 15 3e 3e
       0.5707928 0.23255235 0.25503474 0.18562913
000220 5c 14 6b 3e f1 fd fb be 80 2f aa 3d 38 4f 41 be
       0.22956985 -0.4921718 0.08309841 -0.18877876
000230 0a d7 12 3f d0 7a 15 be 58 f5 a0 3e 1a 32 79 be
       0.57359374 -0.1459763 0.31437182 -0.24335518
000240 9f 7f 0a be fa f0 cf 3e 57 33 7c be cc 5f fe 3e
       -0.13525246 0.40613538 -0.2462896 0.49682462
000250 b0 5b cc bd 26 51 77 be 62 b3 b3 be 80 46 13 bd
       -0.099784255 -0.2415205 -0.35097796 -0.035955906
000260 65 6d 01 3f 83 74 5b 3e cc 8d f2 3e 0d 09 b5 3e
       0.5055755 0.21431164 0.47373807 0.35358468
000270 fa a9 6a be 90 ae 0c bf a8 03 4a 3c 6a c7 0c 3f
       -0.22916403 -0.5495386 0.012329973 0.5499178
000280 cd f2 00 bf 52 5e 91 3e f8 d7 c4 3e c0 b5 99 3e
       -0.50370485 0.28392273 0.3844602 0.30021477
000290 70 d4 6f be 48 a2 27 bf 6c 60 a3 3e a8 9e 1d 3e
       -0.23420882 -0.65481997 0.31909502 0.15392554
0002a0 10 bd 36 bf d7 4d d2 be cc 51 23 3f 15 06 20 3e
       -0.71382236 -0.41075012 0.6379669 0.1562732
0002b0 76 24 b9 be 4c 49 d8 3d b8 92 bd 3e 88 10 b2 3d
       -0.3616063 0.10560855 0.37026 0.08694559
0002c0 1d 99 87 be ec 1b 14 be 91 a8 c9 be 15 4e 0a be
       -0.26484004 -0.14463776 -0.39386418 -0.13506348
0002d0 9e e5 90 3e 62 1d e7 be 0a c6 6c be 44 60 ed 3e
       0.28300184 -0.45139605 -0.23122421 0.46362507
0002e0 64 3d 3e be 78 e6 16 be dc b4 09 3f de 9d 13 3f
       -0.18578106 -0.14736354 0.53791595 0.5766276
0002f0 38 03 9f 3e d7 86 b6 3c 1e de 06 3f 5e dd a7 3e
       0.31057143 0.022281094 0.52682674 0.32786077
000300 0c 2a 81 3e a0 c1 91 bc f2 8e 2c be 7e 4b ee 3c
       0.25227392 -0.017792523 -0.16851404 0.029088732
000310 54 c9 74 be 8f c6 67 3e d0 41 ab 3d a0 03 07 3f
       -0.23904926 0.22634338 0.08362162 0.52739906
000320 78 cf f8 3e c0 69 08 3f 16 c8 2a be e0 0d b4 3d
       0.48595786 0.5328636 -0.16677889 0.08791709
000330 8b 71 34 bf a7 4e 94 be 8b de 88 3e 4a 5f 88 be
       -0.7048575 -0.28966257 0.26732287 -0.266352
000340 c4 c4 f5 3e 06 8b a9 3e 70 3a 92 3d 08 4b e4 3d
       0.48001683 0.3311388 0.07140052 0.111471236
000350 c0 a5 34 bd b1 83 41 3e bc b9 ab 3e e9 2d 94 3e
       -0.044103384 0.18897893 0.33540142 0.28941277
000360 5b a7 0c bf a8 55 af 3d 57 40 cf 3e 36 81 07 3f
       -0.54942864 0.085612595 0.40478775 0.52931535
000370 98 71 f7 3e 38 3d f1 3d f5 fb 2b be 00 18 c8 3d
       0.48328853 0.11779255 -0.16795333 0.09770203
000380 56 cf 9e be 92 ee 2a be d0 8a 2b 3e a8 1d f8 be
       -0.3101756 -0.1669257 0.16752172 -0.48460126
000390 c0 ca 14 3c 68 6b 0d bf 40 9f 81 bd 80 3f 84 3c
       0.0090815425 -0.55242014 -0.06329203 0.01614356
0003a0 70 22 d3 3d 50 0c 06 3d 4c 91 b1 3e 42 12 96 3e
       0.10309303 0.032726586 0.34681165 0.29310805
0003b0 53 cd 9e be 09 46 1d bf c0 b9 19 bc 68 cf c6 bd
       -0.31016025 -0.6143499 -0.009382665 -0.09707528
0003c0 d5 0a aa be fa 1d c1 3e ae 0e bd 3e d5 68 01 be
       -0.3321139 0.37718183 0.36925262 -0.12637646
0003d0 2c 47 f9 3e 74 1d ee be 7c fd 88 3e 58 7e ec 3e
       0.48687112 -0.46506846 0.26755893 0.46190143
0003e0 04 d6 94 3e 5c 40 6a 3e ba d2 12 3f 0c 3f e3 be
       0.2906953 0.22876114 0.57352793 -0.44384038
0003f0 a8 27 12 3e 30 93 d0 3d 80 f2 8d 3e e0 72 d0 3e
       0.1427294 0.10184324 0.27724075 0.40712643

layer.0.bias f4 [128]
000000 15 09 74 3d c1 25 e3 bd c9 04 51 be 06 f7 81 3e
       0.059578974 -0.11091185 -0.20411982 0.25383776
000010 86 86 be be 80 0a 0d bc 90 73 03 3f 80 d9 90 be
       -0.37212008 -0.00860846 0.5134821 -0.2829094
000020 02 93 a8 be de c4 06 bf b5 2f 09 3f c5 17 fa be
       -0.32924658 -0.52644145 0.5358842 -0.4884626
000030 32 73 c5 3e 8e b9 23 3f e1 6c fd 3e 3d dc 0a 3f
       0.3856445 0.6395501 0.4949713 0.54242307
000040 d0 b9 2d 3d 68 47 82 3e 56 09 3a be 4c 9b 9e 3e
       0.042413533 0.25445104 -0.18167624 0.30977857
000050 fe 1d 23 be dc b1 50 3e d4 d7 a4 be b8 47 2f be
       -0.1592941 0.20380348 -0.32195914 -0.17117202
000060 49 2a b4 3e ca c5 0f bf c5 f8 c4 be 59 ff 92 be
       0.3518851 -0.5616118 -0.38471046 -0.2871044
000070 17 04 09 bf 74 a4 f0 be bc b6 1b 3f 40 fb 42 be
       -0.53521866 -0.47000468 0.60825706 -0.19041157
000080 6b d9 a0 3e 00 72 72 bb 56 ce d8 3e cd d7 96 be
       0.31415877 -0.0036994219 0.42344922 -0.29461518
000090 53 16 3a 3f cc d6 e2 bd 3d cf b8 be e0 13 2c 3f
       0.72690314 -0.110761255 -0.3609561 0.67217827
0000a0 6a 8b a6 be 22 4c dd be e9 a2 35 3f 15 c8 0a be
       -0.3252824 -0.43222147 0.70951706 -0.13552888
0000b0 24 e4 bd bd 02 a5 73 3e 40 2b d0 be 26 60 19 be
       -0.0927203 0.23793414 -0.40657997 -0.14978084
0000c0 0c 95 9e 3e e0 ba a6 3e 5f d1 fe 3e 51 7e 35 3f
       0.3097309 0.3256445 0.49769112 0.7089587
0000d0 4a 74 83 be b0 84 7e 3e 80 e6 0d bd b4 07 18 3f
       -0.2567466 0.24855304 -0.03464365 0.59386754
0000e0 9a e0 f0 3e c4 f3 86 3e 34 01 0a bf 32 4e d2 3e
       0.47046357 0.26357853 -0.53908086 0.41075283
0000f0 e0 ac c3 3c 30 43 64 bd 5e 3e 84 3e b8 d8 c4 3e
       0.023886144 -0.055728137 0.25828832 0.38446593
000100 b2 d6 dd be 42 a2 26 3f 72 4a 8d be 08 5d b6 be
       -0.43327862 0.65091336 -0.2759586 -0.35617852
000110 c0 14 d1 be 20 e6 84 bd 00 bc 27 3b ec ac 25 3f
       -0.40836143 -0.06489205 0.0025594234 0.6471698
000120 7c f6 a7 be c0 13 2f bc 24 85 99 3e 75 06 8d 3e
       -0.3280524 -0.010685861 0.2998439 0.2754399
000130 2c 13 eb bd 16 45 0c bf 00 16 03 3d 85 79 1c 3f
       -0.11478266 -0.54792917 0.032003403 0.61122924
000140 e7 60 f4 3d 54 7f e5 3e 38 21 05 be 48 69 b6 bd
       0.11932545 0.44823706 -0.13000953 -0.089067996
000150 84 32 b8 be 9c 47 a7 3e 34 22 dc be 4e 1c 92 be
       -0.3597604 0.3267182 -0.42994845 -0.2853722
000160 03 05 ff 3e ea 32 08 3f d3 e1 c8 3e 7c fc 02 be
       0.4980851 0.5320269 0.3923479 -0.12791628
000170 db 94 82 3e 05 f5 d4 be a8 20 5e 3e 48 05 42 3e
       0.25504193 -0.41593185 0.21692145 0.18947327
000180 e0 74 14 be 88 57 47 bd 00 33 13 bf 14 26 22 3e
       -0.1449771 -0.04866746 -0.57499695 0.15834838
000190 d0 fa 1d 3f 90 27 7f 3e 0d 1e 81 be 00 20 e3 b9
       0.61710835 0.24917436 -0.2521824 -0.00043320656
0001a0 03 b4 70 bd 7c 05 d0 3e e8 c8 30 3e 6c ab f5 be
       -0.058765423 0.40629184 0.1726414 -0.47982347
0001b0 e8 36 07 be d8 46 c1 be d6 68 3f bd 44 0b cb be
       -0.13204539 -0.37749362 -0.04673084 -0.39657032
0001c0 aa 52 02 bf 12 9b 94 be 64 e0 88 3e ed a6 f9 3e
       -0.50907385 -0.2902456 0.26733696 0.48760167
0001d0 00 4b 0e bf 70 4e 2b 3d f3 89 11 3f 95 f6 fa bc
       -0.5558319 0.04182285 0.5685112 -0.030635158
0001e0 22 50 cb be 62 12 07 3e 3e 0a bc 3d b9 15 96 3e
       -0.39709574 0.13190606 0.09181641 0.29313448
0001f0 47 ac e3 3e fa 2c 36 3f fe e0 9a 3d a8 13 90 bd
       0.44467375 0.7116238 0.07562445 -0.07034999

layer.3.weight f4 [1, 128]
000000 8a 05 78 be a3 fa 34 3d ab 66 2d bd ee 95 a5 bd
       -0.24220863 0.04418434 -0.04233424 -0.080852374
000010 10 88 c5 3c 74 9e 94 3c 56 37 98 bd 9f 21 21 bd
       0.024112731 0.018141963 -0.074324295 -0.039338704
000020 d8 0d 9b bd 60 bf 78 bb 20 cd 37 be 19 e1 a5 3d
       -0.07571 -0.0037955865 -0.17949343 0.080995746
000030 d9 ed fa bd cd eb 11 be e7 ba 27 be d5 ec 22 be
       -0.12252397 -0.14250107 -0.16379891 -0.15910657
000040 37 70 93 bd 6c 3f ed bd 2e 49 06 bd 17 c6 06 be
       -0.07199138 -0.115843624 -0.032784633 -0.13161503
000050 40 77 c9 ba 51 b0 05 bd e5 3d 3f bd 68 4c 6c bc
       -0.0015370622 -0.03263885 -0.046689887 -0.014422514
000060 fc e2 2f be 20 87 73 bb bb 2f b2 3d 2b a7 ac bd
       -0.17176431 -0.0037159398 0.0870051 -0.08430322
000070 2e 89 28 bd 1a ae f4 bc 6c 1a 14 be 4a 04 3a 3d
       -0.04114645 -0.029868174 -0.14463204 0.045414247
000080 4d 55 b5 bc 29 2b 8f 3d 94 04 0d be 64 04 9f bd
       -0.022135401 0.06990654 -0.13771278 -0.07764509
000090 ea 40 d1 bd 98 5c 08 bc cd ab 90 bd 9b 95 0a be
       -0.102174595 -0.008322857 -0.070640184 -0.13533632
0000a0 9d 1e 90 3d d4 0c dc bc 13 18 19 be 04 0b e3 3c
       0.07037089 -0.026861586 -0.1495059 0.027715214
0000b0 28 0a 0a bc 31 64 e7 bc 14 bb 9c bc 06 95 72 bd
       -0.008425273 -0.028246017 -0.019132175 -0.05922415
0000c0 cb de 0b ba 5d f2 8b 3d cd 89 d4 bd 08 35 f7 bd
       -0.0005335628 0.068333365 -0.10377846 -0.12070662
0000d0 5a 56 b7 3b ac 60 86 3c 37 ea b3 3d ec f4 be bd
       0.0055950107 0.016403519 0.08784907 -0.09324059
0000e0 2d f7 e2 bd cb 62 1e bb 48 1b 45 bd 2f 6f 1d be
       -0.11082301 -0.0024167772 -0.04812172 -0.15374444
0000f0 b3 69 97 bd 32 09 5e 3d d3 56 b4 bd e8 de 5a bd
       -0.073932074 0.054207988 -0.08805623 -0.053435236
000100 d0 7f d8 3b fc da 2d be 67 1d 1b bd 50 92 73 bc
       0.0066070333 -0.16978067 -0.037869837 -0.014866427
000110 db cc 53 be a8 11 86 bc b6 e3 27 3d bc 81 0c be
       -0.20683615 -0.016365841 0.040988646 -0.13721365
000120 bb 3a 6b be a4 b8 ac bc e2 97 4f be 93 07 20 bd
       -0.22971623 -0.021084137 -0.20272782 -0.039069723
000130 ff 39 95 3d f4 41 84 bc 9d ec a4 3d c8 df a8 bd
       0.072864525 -0.01614473 0.08052943 -0.08245808
000140 10 b3 1d be 4c 84 30 bb 20 d8 06 3b f0 1a a5 3b
       -0.15400338 -0.0026934324 0.0020575598 0.0050386116
000150 d6 d0 64 3d 4c e3 c7 bb c0 db ec 3b e2 4d 42 3d
       0.055863224 -0.006100094 0.0072283447 0.047437556
000160 57 ea 95 be fa 24 c5 bc e7 50 c7 bd 49 5f 98 3d
       -0.2928035 -0.024065483 -0.09732228 0.07440049
000170 c0 8e 05 be 1a 28 8c bd 8e f7 75 3d 56 85 aa bd
       -0.13042736 -0.06843586 0.06005054 -0.08326213
000180 20 50 1a 3c a7 91 f8 bb 88 b8 65 bc fe 0a 44 3d
       0.009418517 -0.0075857225 -0.014021046 0.047862045
000190 d7 46 d4 bd ea 76 0d be f0 34 37 3c a1 22 80 bd
       -0.10365074 -0.13814893 0.011182055 -0.06256605
0001a0 c8 f8 2d be 6b d0 cf bd 5f 6e ac bd 08 84 cd bc
       -0.16989434 -0.101471744 -0.08419489 -0.025087371
0001b0 c2 03 6a 3d fc 45 94 bb 48 a3 ed bd e2 c7 93 bd
       0.05713249 -0.0045249444 -0.11603409 -0.07215859
0001c0 ae 71 29 3d 2c ed 5a bd 50 ae b8 bd f0 ac 39 bd
       0.04136818 -0.05344884 -0.090176225 -0.04533094
0001d0 2a 48 67 3d 2c 79 b2 bd 75 8e ca bd 82 be 26 be
       0.056465305 -0.08714518 -0.09890453 -0.1628361
0001e0 97 f0 a4 3d 4f 0e 2f be 26 d3 0e be 35 85 f1 bd
       0.08053701 -0.17095302 -0.13947734 -0.11792985
0001f0 63 97 25 be 11 10 d4 bd 84 46 fc bd 18 cd 89 bc
       -0.1617103 -0.10354627 -0.12318137 -0.01682143
