summary_model.pt (torch, 4800 bytes, 3 tensors)

layer.0.weight f4 [128, 3]
0.53639466 0.010720385 0.5869425 -0.038559876 0.5498728 0.05024871 0.31938887 0.35519725
-0.22420077 -0.17647585 0.44810665 -0.26594853 0.14282426 0.10937985 0.32560033 -0.39767832
-0.15973619 -0.13540512 0.067549974 0.57909256 0.5579991 0.3121521 0.19185354 -0.3491158
0.029505443 0.26086047 0.47198647 0.1907254 -0.07634914 0.1754921 0.078885846 0.5717531
0.34768498 0.45200756 0.0802478 0.054020382 0.037059844 -0.102246016 -0.5743536 -0.46885145
-0.44718862 0.5325414 -0.28654546 -0.47857338 0.049954534 0.2977732 0.5590747 0.63135284
-0.09778854 0.23549604 -0.35005635 0.38823792 -0.13083422 0.11642115 0.6178586 -0.35647467
-0.20976065 0.054308295 -0.45111823 -0.5191674 -0.07485444 -0.14592159 0.1899471 -0.21167356
-0.25152373 0.110827684 -0.35442603 -0.19815013 0.51780057 -0.15195538 -0.3015266 0.4774721
0.11938292 -0.27850783 -0.3954212 0.43863183 0.57903534 -0.03382009 -0.16646233 0.46727106
-0.17790236 -0.14088741 -0.34857652 0.22343552 0.2247758 -0.5746037 0.2200487 -0.11433596
-0.23025708 -0.4055183 -0.48735017 0.14539057 -0.19765943 0.460971 -0.1794226 0.44641104
-0.019089473 0.019214686 0.3224593 0.40852502 -0.06572571 -0.33710593 0.5736794 0.47089908
-0.07694343 0.17992344 0.20934299 -0.45596555 0.023764294 0.3248223 -0.21926045 -0.3290121
0.026606014 0.4600821 -0.4464652 -0.08747715 -0.111864656 0.5615999 0.323442 -0.32377878
-0.16223538 -0.29489502 0.052137613 0.5808046 0.14220226 -0.5249598 -0.22417977 0.2351721
-0.32510558 -0.57323015 0.35698307 0.010800183 0.04918661 -0.057777777 0.27408716 -0.52169436
0.31612957 -0.5201402 0.49501944 0.24013822 0.4373931 -0.35202008 0.54846334 -0.34057385
-0.27496034 0.41711783 0.40796408 0.05424647 0.12544894 -0.36945358 -0.106001616 -0.41361457
0.16094321 0.18547651 0.30567044 0.6690495 0.49980688 -0.48522076 0.08340682 0.13311028
-0.16240048 -0.347797 -0.40618265 0.25871468 -0.21356517 0.4575828 0.31418684 0.27189347
-0.43947437 -0.037079394 -0.5237284 0.38617647 -0.31892648 0.12094396 0.23940706 0.297697
0.024577603 0.30468386 0.2906311 0.3536172 -0.03922838 -0.18800865 0.14964582 -0.07037608
-0.45425117 -0.17777734 -0.40657407 0.031381607 0.43040037 0.3808237 0.1390533 0.20348293
-0.16685893 0.65327704 0.56352484 -0.19111186 0.366049 0.2016182 0.28419977 0.27969208
0.61451775 0.08052171 0.16532047 0.11439753 0.4790189 -0.3028485 -0.16270152 0.37137616
0.24015169 0.6038769 -0.46700397 0.45256484 0.16330445 0.4311584 0.5539671 -0.11194673
0.35313523 -0.4045159 0.016739778 0.47122756 -0.38905028 -0.48499236 0.22107519 -0.4058565
0.24424358 0.25843334 0.58846325 0.50016916 0.06576466 -0.10956568 -0.06847206 0.3513228
0.52970773 0.2871938 0.2619669 -0.37753206 -0.41529822 0.54556185 0.055795044 0.58059454
0.3223862 -0.30867988 -0.17422953 0.004859686 -0.5169538 -0.2096569 -0.56862444 -0.3055718
-0.30174124 0.36298317 0.15230274 0.06987297 0.1739322 0.39646393 -0.13956466 0.5282686
00000000: 2951 093f 8ea4 2f3c dd41 163f f6f0 1dbd
00000010: 77c4 0c3f 97d1 4d3d f086 a33e 6adc b53e
00000020: e394 65be 16b6 34be 3c6e e53e 682a 88be
00000030: 8640 123e 8b02 e03d 16b5 a63e 7e9c cbbe
00000040: e291 23be a4a7 0abe a457 8a3d 693f 143f
00000050: 07d9 0e3f 66d2 9f3e 4175 443e 4ebf b2be
00000060: 66b5 f13c 818f 853e 36a8 f13e 854d 433e
00000070: f05c 9cbd 33b4 333e e78e a13d 695e 123f
00000080: c403 b23e 896d e73e f558 a43d 7a44 5d3d
00000090: 10cc 173d 5c66 d1bd d608 13bf 4c0d f0be
000000a0: e8f5 e4be a254 083f 16b6 92be 9207 f5be
000000b0: 209d 4c3d bb75 983e 851f 0f3f 57a0 213f
000000c0: 5c45 c8bd e025 713e 963a b3be 1fc7 c63e
000000d0: 68f9 05be 366e ee3d fb2b 1e3f d983 b6be
000000e0: 7fcb 56be 6072 5e3d f8f8 e6be 28e8 04bf
000000f0: 494d 99bd 786c 15be 7e81 423e f4c0 58be
00000100: b8c7 80be a0f9 e23d 5477 b5be dee7 4abe
00000110: 948e 043f 319a 1bbe b261 9abe 3977 f43e
00000120: 087f f43d 9498 8ebe a674 cabe 5a94 e03e
00000130: a93b 143f ef86 0abd 1a75 2abe 273e ef3e
00000140: 092c 36be ca44 10be 9f78 b2be 48cc 643e
00000150: a12b 663e 3a19 13bf 7254 613e f928 eabd
00000160: 83c8 6bbe 18a0 cfbe f685 f9be 44e1 143e
00000170: 3c67 4abe 6404 ec3e 8fba 37be fd8f e43e
00000180: 8761 9cbc 1e68 9d3c 6319 a53e 312a d13e
00000190: 339b 86bd 2699 acbe a7dc 123f af19 f13e
000001a0: 8494 9dbd da3d 383e 025e 563e 5174 e9be
000001b0: 56ad c23c 1c4f a63e d085 60be 4674 a8be
000001c0: dbf4 d93c e28f eb3e 1697 e4be 3827 b3bd
000001d0: 4c19 e5bd 03c5 0f3f 319a a53e 55c6 a5be
000001e0: 0821 26be 7bfc 96be 408e 553d 9caf 143f
000001f0: 789d 113e c463 06bf 628f 65be f4d0 703e
00000200: 3d74 a6be 36bf 12bf 7cc6 b63e 40f3 303c
00000210: e677 493d 64a8 6cbd 2755 8c3e c38d 05bf
00000220: bcdb a13e e827 05bf 3073 fd3e cbe6 753e
00000230: fdf1 df3e fa3b b4be 1868 0c3f b25f aebe
00000240: 9ac7 8cbe 7890 d53e abe0 d03e 8c31 5e3d
00000250: b075 003e 0529 bdbe 6017 d9bd 4ac5 d3be
00000260: 4cce 243e 8eed 3d3e d680 9c3e d446 2b3f
00000270: b0e6 ff3e db6e f8be 32d1 aa3d 104e 083e
00000280: 504c 26be 7312 b2be 2cf7 cfbe 4076 843e
00000290: d4b0 5abe 4b48 ea3e 19dd a03e 9f35 8b3e
000002a0: c902 e1be 90e0 17bd 1013 06bf ecb8 c53e
000002b0: 554a a3be 78b1 f73d 2027 753e be6b 983e
000002c0: f856 c93c 86ff 9b3e 99cd 943e 500d b53e
000002d0: f0ad 20bd 5785 40be c13c 193e 5621 90bd
000002e0: 9c93 e8be 430b 36be 7a2a d0be 008a 003d
000002f0: 705d dc3e 53fb c23e fd63 0e3e d45d 503e
00000300: 11dd 2abe 2a3d 273f 2a43 103f d4b2 43be
00000310: c66a bb3e 0075 4e3e a282 913e cd33 8f3e
00000320: 0951 1d3f 91e8 a43d c549 293e 4149 ea3d
00000330: f741 f53e f50e 9bbe 3a9b 26be 0425 be3e
00000340: 53ea 753e ad97 1a3f 251b efbe 94b6 e73e
00000350: 4839 273e cbc0 dc3e cad0 0d3f 5444 e5bd
00000360: 24ce b43e b51c cfbe dc21 893c bd44 f13e
00000370: 9931 c7be eb50 f8be 8961 623e 6ccc cfbe
00000380: fd1a 7a3e 6051 843e 87a5 163f 160b 003f
00000390: 9faf 863d f963 e0bd 143b 8cbd 95e0 b33e
000003a0: ed9a 073f 110b 933e 8720 863e e24b c1be
000003b0: f8a1 d4be f1a9 0b3f 5889 643d d8a1 143f
000003c0: ce0f a53e 4a0b 9ebe 3a69 32be 003e 9f3b
000003d0: 1657 04bf 4cb0 56be 5f91 11bf e873 9cbe
000003e0: d47d 9abe eed8 b93e 40f5 1b3e 8f19 8f3d
000003f0: 481b 323e 52fd ca3e 0aea 0ebe 9c3c 073f

layer.0.bias f4 [128]
0.45493725 0.6440454 0.6701457 -0.2979211 -0.05084662 -0.38991174 -0.20689951 0.08164749
0.26294172 0.35426024 0.47389597 0.56311226 -0.54142827 -0.19822037 -0.10387987 -0.47295362
-0.20006958 0.56368375 0.05180022 -0.49329972 0.5287252 -0.5612726 0.62566614 -0.29705554
0.5133859 0.55017084 0.74626267 -0.3490172 -0.40380678 0.41121706 -0.04034114 0.16082993
0.39409605 0.10359283 -0.15351498 0.6995079 0.43825334 0.70994115 0.25235736 -0.3305381
-0.31605303 -0.15776351 -0.263755 -0.11434734 0.36152297 -0.3710025 0.3109011 -0.5216112
-0.5316334 0.6052648 -0.5390391 -0.42437905 0.10433196 -0.46376428 -0.14676863 -0.36617836
0.5510013 -0.12899463 -0.06557796 -0.09126721 0.57168233 0.26772994 -0.18645754 0.27477154
0.34282634 -0.5141233 0.27428493 0.0987072 -0.42275876 0.5305833 -0.5677159 -0.30464152
0.33275232 -0.18170494 0.15389815 0.44320837 0.52519476 0.21901974 0.65356666 0.4317817
-0.5314513 -0.011127889 -0.26440215 0.44260538 -0.56387967 0.1523442 0.65858334 0.23512761
0.2815611 0.59967285 0.3537719 -0.23059398 0.6467416 -0.4331444 -0.52071357 0.008161037
0.6891755 0.35790145 0.5632171 0.5308974 0.3863703 0.27270153 0.045676075 -0.469938
-0.19232383 0.6763891 0.4011476 0.5424419 0.20777369 0.31622988 -0.40309846 0.1519449
-0.11448553 -0.47325614 0.16333589 0.44193208 -0.55112624 -0.042066496 -0.20724115 -0.5311221
0.24470721 0.39402705 0.45822102 -0.25666776 0.31405675 -0.017981695 0.080819376 -0.41550666
00000000: 89ed e83e 29e0 243f ab8e 2b3f 1d89 98be
00000010: 8c44 50bd 83a2 c7be 77dd 53be cd36 a73d
00000020: 4ca0 863e 9961 b53e 7ea2 f23e 2028 103f
00000030: 0b9b 0abf 48fa 4abe f8be d4bd fa26 f2be
00000040: 0adf 4cbe 944d 103f 782c 543d c891 fcbe
00000050: 895a 073f 90af 0fbf a82b 203f aa17 98be
00000060: 426d 033f ffd7 0c3f 120b 3f3f 62b2 b2be
00000070: c3bf cebe 0b8b d23e c03c 25bd 9ab0 243e
00000080: f5c6 c93e 7a28 d43d 0833 1dbe f312 333f
00000090: be62 e03e b4be 353f fc34 813e 4a3c a9be
000000a0: b4d1 a1be c28c 21be e50a 87be f02e eabd
000000b0: 8a19 b93e 0af4 bdbe 6e2e 9f3e 5088 05bf
000000c0: 2019 08bf a2f2 1a3f 77fe 09bf 3648 d9be
000000d0: ffab d53d 8372 edbe 844a 16be bb7b bbbe
000000e0: 6c0e 0d3f 2b17 04be bd4d 86bd 4eea babd
000000f0: c659 123f e613 893e baee 3ebe dbae 8c3e
00000100: ef86 af3e 969d 03bf 136f 8c3e 0027 ca3d
00000110: d673 d8be 4fd4 073f d455 11bf f9f9 9bbe
00000120: 835e aa3e dc10 3abe 7a97 1d3e 35ec e23e
00000130: 2a73 063f b646 603e 2550 273f 7e12 dd3e
00000140: 310d 08bf c051 36bc b85f 87be 2c9d e23e
00000150: 6b5a 10bf 1e00 1c3e eb98 283f 4bc5 703e
00000160: c728 903e 2984 193f 9721 b53e d420 6cbe
00000170: dc90 253f 1ac5 ddbe 7c4d 05bf dfb5 053c
00000180: ce6d 303f dc3e b73e ff2e 103f e4e8 073f
00000190: 54d2 c53e 899f 8b3e d616 3b3d b79b f0be
000001a0: 8af0 44be d627 2d3f 3863 cd3e 79dd 0a3f
000001b0: a0c2 543e e2e8 a13e ec62 cebe 7297 1b3e
000001c0: 6477 eabd a14e f2be 8641 273e ec44 e23e
000001d0: 9c16 0dbf eb4d 2cbd 0637 54be 9ef7 07bf
000001e0: 8794 7a3e eabd c93e f29b ea3e f569 83be
000001f0: 0ccc a03e 594e 93bc a184 a53d 4abd d4be

layer.3.weight f4 [1, 128]
-0.14875375 -0.07601243 -0.10975847 -0.032013185 -0.15056866 0.044188477 -0.25065377 -0.10303028
-0.2851396 -0.07769213 -0.10345597 -0.115970455 -0.08411382 0.023035444 -0.08321909 -0.06127441
0.04122003 -0.11198147 -0.1461229 -0.023229875 -0.2063827 0.060639627 -0.21907297 0.026990391
-0.045941558 -0.11410581 -0.14322557 0.080269076 0.0128656505 -0.056639697 -0.04313373 0.006337441
-0.17287344 -0.11954565 -0.12081633 -0.09126836 -0.16180776 -0.1679164 -0.0529104 -0.13535519
0.012343839 -0.03873242 -0.06877789 0.042525344 -0.2470918 0.06806431 -0.057825346 0.022588521
0.028702479 -0.132333 0.043017544 -0.19042516 -0.043903306 -0.06736942 0.06377294 0.022047779
-0.18159394 -0.27973077 0.012557774 -0.112454124 -0.15805145 -0.21392466 -0.014193296 -0.13810314
-0.11734242 -0.06130586 -0.11851799 -0.1625648 -0.22892024 -0.07388476 -0.0708052 -0.042921055
-0.059613764 0.033781335 0.016816309 -0.112133995 -0.16726194 -0.14510603 -0.089828886 -0.11157436
0.014178909 0.009112962 -0.072158776 -0.100479834 0.00900488 -0.12066009 -0.07444679 -0.14376107
-0.0795402 -0.0893368 -0.16171396 -0.047946423 -0.09836851 0.069633886 -0.04645846 -0.3004233
-0.21069404 -0.04757207 -0.10655452 -0.1329271 -0.05546665 -0.06606176 0.011683661 -0.066405505
-0.19810706 -0.12511171 -0.13839255 -0.212743 -0.30153233 -0.088596076 0.03338616 -0.06679016
-0.013561919 0.055705644 -0.06515386 -0.21504189 0.005740203 0.029264728 -0.06540461 -0.05131735
-0.2482174 -0.108035095 -0.21731147 0.063891895 -0.04382563 0.02866449 -0.025256403 -0.051328603
00000000: e752 18be 68ac 9bbd 0cc9 e0bd 4220 03bd
00000010: ac2e 1abe fafe 343d b155 80be 8a01 d3bd
00000020: d1fd 91be 0d1d 9fbd b9e0 d3bd eb81 edbd
00000030: de43 acbd d4b4 bc3c c56e aabd e0fa 7abd
00000040: 56d6 283d 8a56 e5bd 3ea1 15be 944c bebc
00000050: fd55 53be 4261 783d aa54 60be f41a dd3c
00000060: 372d 3cbd 4fb0 e9bd b9a9 12be 1d64 a43d
00000070: 73ca 523c 07ff 67bd feac 30bd 4faa cf3b
00000080: bc05 31be 5ad4 f4bd 8d6e f7bd e8ea babd
00000090: efb0 25be 47f2 2bbe 93b8 58bd 8d9a 0abe
000000a0: d03d 4a3c e3a5 1ebd 6cdb 8cbd 0e2f 2e3d
000000b0: a205 7dbe 4d65 8b3d 45da 6cbd 900b b93c
000000c0: 7621 eb3c 4d82 07be 2a33 303d d0fe 42be
000000d0: f4d3 33bd faf8 89bd 639b 823d 8b9d b43c
000000e0: c3f3 39be df38 8fbe 1fbf 4d3c 594e e6bd
000000f0: 3dd8 21be 110f 5bbe 008b 68bc e96a 0dbe
00000100: 3951 f0bd da1b 7bbd 8fb9 f2bd 6377 26be
00000110: 116a 6abe e550 97bd 5102 91bd fdcd 2fbd
00000120: 902d 74bd 4c5e 0a3d 5bc2 893c 82a6 e5bd
00000130: b746 2bbe ad96 14be 35f8 b7bd 1981 e4bd
00000140: a84e 683c 884e 153c fbc7 93bd 5fc8 cdbd
00000150: 3489 133c a31c f7bd 8f77 98bd 1a36 13be
00000160: f9e5 a2bd 36f6 b6bd 5898 25be 7863 44bd
00000170: 6e75 c9bd 369c 8e3d 3a4b 3ebd 15d1 99be
00000180: 2ec0 57be eeda 42bd 4239 dabd 0b1e 08be
00000190: ff30 63bd 634b 87bd d36c 3f3c 9cff 87bd
000001a0: 94dc 4abe 491d 00be c7b6 0dbe 4dd9 59be
000001b0: 7262 9abe dc71 b5bd edbf 083d 48c9 88bd
000001c0: d032 5ebc 9a2b 643d 636f 85bd f133 5cbe
000001d0: 5018 bc3b 95bc ef3c daf2 85bd 2432 52bd
000001e0: b42c 7ebe 8141 ddbd e686 5ebe c1d9 823d
000001f0: 8182 33bd cbd1 ea3c 84e6 cebc f13d 52bd
